cifar_net.pth (torch, 250887 bytes, 10 tensors)

conv1.weight f4 [6, 3, 5, 5]
00000000: f976 4abf 329e 6bbf f5bf a7bf d259 d5bf
00000010: fb3a a6bf f238 6fbf 662a 71bf 1b19 7bbf
00000020: 1672 8abf 7648 6bbf fec7 0f3f a6f9 623f
00000030: 37b1 7e3f ea6c 483f cba9 8d3f b057 9a3f
00000040: 63e1 9c3f 0304 973f 742c 863f 9f94 783f
00000050: 2ca5 013e 4202 ad3e 97c8 403e 07c0 a0bc
00000060: ad68 4bbe 13ab f43e 337d d63e 6c86 0cbd
00000070: 6cec f6be 46b7 80be 901d 7dbf 7fc4 81bf
00000080: bcba 7ebf 0af9 90bf acb6 3fbf 2699 1b3d
00000090: 396d 883d fb1d cc3d d0c1 513d f2ab b13e
000000a0: 9e92 29bc 87d5 1bbe 656d debd e248 9f3c
000000b0: 7dd3 fabe 9c24 86bf 4bf2 4bbf 0e5c 7abf
000000c0: 6a8c 8ebf f5e0 adbf 6e72 db3f d518 f73f
000000d0: 2b7a f43f c86f be3f a2a2 cd3f 36b7 093e
000000e0: 13b5 b33e 9c37 053f f338 1b3f d031 343f
000000f0: e25c d23e cba6 653e 5b0c e13e 3ad3 023f
00000100: 07a1 443f fe6c cfbe 574d 0cbf 2748 46bf
00000110: 335b f5be a9f1 a2be 0a73 8cbf 867f 52bf
00000120: eeb0 91bf e919 70bf fe8c 85bf 1266 383f
00000130: 45dc 4a3f 6b06 3d3f 9410 f23e 435a 3e3d
00000140: 58cb c8be 9256 b8be eafa d9be 0cea 2dbf
00000150: 7f1e 71be b6e3 24bf ba57 20bf c35a 29bf
00000160: c164 1fbf 69f8 32be 3239 1ebd b54d 8d3e
00000170: 40bb bf3e a3cd 85be 5c09 a1be ad24 243e
00000180: 356e 833e 5287 393a ba3a 86be c2a0 08be
00000190: 6ce8 9bbe f462 783d f927 b73d 1bc7 91be
000001a0: e4a2 ffbe f7b2 70bf a9fe 31bf ddb9 15bf
000001b0: 2246 38bf 8919 a1be 07d9 91bf 88f5 4abf
000001c0: a2ae dbbe e6c1 85be 7047 b93d ac87 0cbe
000001d0: a8b4 093f f8d8 1f3f 2978 423e 44e7 433d
000001e0: 5ccd 0a3e 641b a03e c8ce bc3e aacf d03c
000001f0: 0d1f ce3d 4c37 cc3e 473c 4e3f 922a 703f
00000200: 8479 0c3f dea2 da3e 62aa 4abe 9043 66bd
00000210: 0dbb 713d cda7 763c a467 1e3f d5b4 2dbe
00000220: 13aa b0bd c2b5 d3bd 0730 7f3e dab2 3e3f
00000230: 5f66 033f d600 253f 9853 6a3f e91d cd3e
00000240: bd62 2e3f 9bfe 353f bfd6 043f b57c 323f
00000250: 445c f63e dbc8 543f 61e9 6fbe aa75 13bf
00000260: a98d 34bf 70c4 04bf 10fd 49be 6d26 003f
00000270: 6235 363f 5b0e 053f ae1f 693d 396d f53d
00000280: f098 26bf 848d 97bd 1052 163f ced8 193e
00000290: d13d 873b 25be c4bf b527 d5bf 0e1a a7bf
000002a0: d367 bdbf 27e9 cbbf ed29 a7bf 0dae 5ebf
000002b0: b5e0 1bbf 7f5d 23bf f00a 81bf a521 7e3e
000002c0: e8f5 5ebe 2de3 bfbe be1d 99be 6ebd e43d
000002d0: afa5 8a3f 20f5 893f b6c5 433f b51f 8c3e
000002e0: 23b4 d63e f570 b4bd c357 ac3e 2dd7 553f
000002f0: 49cb 0f3f 5fea e03e 328b aebf 9aa1 bfbf
00000300: 7b37 90bf 2661 a6bf 0ba2 b0bf b52b 7ebf
00000310: 5480 39bf ceec 0cbf 085d 9cbe 6229 1fbf
00000320: 18f8 623f 5e29 6f3e dbdd 18bd 0929 f2bc
00000330: 79f7 163f bbfe ac3f 72ad a83f 5b77 6f3f
00000340: 32b5 3f3e 5308 163f 889c 263f 9805 2f3f
00000350: d30a 823f eb05 343f 503e 0a3f 34f6 09be
00000360: 125c 93be fc63 8abe 065c e4be c898 c0be
00000370: f9bf 663f b59f 3f3f b4c0 723f a429 863f
00000380: 3bfa 4e3f 3e44 dc3c 4529 b7be 2325 b1be
00000390: f8af a7be 8ae1 abbe e1be a63c 7188 75be
000003a0: df53 15bd ac40 54be a8b6 c7be c865 debd
000003b0: 5981 ef3c 337a a6be 0e8c 85be f121 09be
000003c0: 61c7 4a3e 049d c13e 7dd6 1bbe 6635 07be
000003d0: f59b fb3d 4184 1e3f 7540 393f 0536 4b3e
000003e0: 1d8c 1d3e be84 193e 4f96 99be 7e1d 37be
000003f0: f0e6 e3bd 3e8f bbbd e9b3 adbe 0fb5 8ebe
-0.7908779 -0.9203826 -1.3105456 -1.6668036 -1.298675 -0.93446267 -0.9420532 -0.9808518
-1.0816066 -0.9190744 0.5616454 0.88662183 0.9948916 0.7829119 1.1067442 1.205801
1.2256283 1.1798099 1.0482316 0.9710178 0.12660664 0.33790785 0.18826519 -0.019622816
-0.1986415 0.4778677 0.41892394 -0.034307882 -0.4822725 -0.25139827 -0.98873234 -1.0138091
-0.99503684 -1.1326001 -0.7488811 0.03798785 0.066614576 0.09966656 0.051210225 0.34701496
-0.010349898 -0.15218173 -0.10860709 0.019443933 -0.48989478 -1.0479922 -0.79666585 -0.97796714
-1.1136601 -1.3584276 1.7144296 1.9304453 1.9099783 1.4877863 1.6065257 0.13448796
0.35099086 0.5203798 0.6063377 0.7038851 0.4108649 0.22426908 0.4395474 0.51103556
0.7680821 -0.40512842 -0.5480551 -0.77453846 -0.47921142 -0.31824997 -1.0972607 -0.82225835
-1.138212 -0.93789536 -1.0433652 0.72030747 0.79242355 0.7383792 0.47278273 0.0464728
-0.3921764 -0.36003548 -0.42574245 -0.6793525 -0.2354679 -0.6440996 -0.6263386 -0.66154116
-0.62263113 -0.17477573 -0.038628764 0.27598348 0.37447548 -0.2613345 -0.31452453 0.16029616
0.2567002 0.0007077354 -0.2621668 -0.13342574 -0.3045076 0.060641244 0.08943171 -0.28472218
-0.49928963 -0.9402308 -0.69529206 -0.5848673 -0.71982014 -0.31464794 -1.1394356 -0.792809
-0.42906672 -0.26124495 0.09046829 -0.1372363 0.53791285 0.62440443 0.1899115 0.047827974
0.13554901 0.31270897 0.36876512 0.025489647 0.10064516 0.39885938 0.80560726 0.9381496
0.5487292 0.42702383 -0.19791558 -0.056216776 0.059016276 0.015054655 0.61876893 -0.16963513
-0.08626189 -0.10337402 0.24920665 0.74491656 0.5132808 0.644544 0.91533804 0.40061882
0.6811941 0.7109162 0.51890177 0.6972154 0.48117268 0.8311898 -0.2342887 -0.57601416
-0.70528656 -0.5186224 -0.19725442 0.50058633 0.71175206 0.5197503 0.056914978 0.11983723
-0.65077114 -0.07400039 0.5871897 0.1502411 0.004127242 -1.5370528 -1.6652743 -1.3054826
-1.479731 -1.5930527 -1.305967 -0.8698433 -0.6088975 -0.6381454 -1.0081463 0.24817522
-0.21773493 -0.3747801 -0.29905504 0.11168943 1.0831813 1.0777931 0.7647356 0.2736794
0.41934308 -0.08810607 0.33660707 0.8353146 0.56169564 0.4392881 -1.3636229 -1.4971192
-1.1266931 -1.2998397 -1.3799452 -0.9928544 -0.7246144 -0.55048835 -0.30539727 -0.6217252
0.8865981 0.23355624 -0.037320953 -0.029560583 0.58971363 1.3515238 1.3177931 0.93541497
0.18721464 0.5860645 0.650826 0.6836791 1.0159553 0.7032153 0.5400133 -0.13472825
-0.28781182 -0.27029407 -0.44601458 -0.37616563 0.9013668 0.7485307 0.9482529 1.0481458
0.8085057 0.02688801 -0.35773674 -0.34598646 -0.3275144 -0.3357051 0.02035469 -0.2397783
-0.03645694 -0.20727795 -0.39006543 -0.10859257 0.029236482 -0.32515106 -0.26083416 -0.13391854
0.1980262 0.37815106 -0.1521854 -0.13203964 0.12285606 0.61920553 0.7236398 0.19844826
0.1538548 0.14992043 -0.2999749 -0.17882344 -0.11128032 -0.09158181 -0.33926323 -0.27872512

conv1.bias f4 [6]
00000000: 5335 7fc0 8c14 9ec0 aa3d 92c0 a1ac 92c0
00000010: 08ca a1c0 cc9c 0dc0
-3.9876297 -4.940008 -4.5700274 -4.583573 -5.055912 -2.2126951

conv2.weight f4 [16, 6, 5, 5]
00000000: 5c53 1abf e332 f1be c801 c9be 1109 36bf
00000010: a189 c73d c43b 65be 7af9 d5be 6ecd 5dbe
00000020: 774e 63be 4fc9 4b3e 8ccd d5be 7cff c4be
00000030: 841d 40be 2af7 04be 5582 fc3e 51e1 09bf
00000040: 6a4c fbbe 00e4 ddbe 3634 61be 9265 9fbd
00000050: 9f77 13bf 8f83 26bf 8371 86be 1aaf b03e
00000060: 45c1 543e 2014 d4bd 8ca4 a3bd ae9a 1ebf
00000070: 5402 15bf 2893 24bf b8fc 163e 2e37 df3d
00000080: 3f3f 8bbe d6ad 1fbf 328f 2fbf 3116 71be
00000090: b5ff 52bf b9fb 78be a2f4 f33d 5c62 6a3e
000000a0: 167d ffbe 52c5 4dbf b356 47bf d535 19bf
000000b0: 8dfc 923e 65b4 26bf 3d94 1cbf a0a7 babe
000000c0: 536c 81be 1b04 76be 0f15 04bf f66e 06bf
000000d0: 48ce b8be 83e0 85bd d249 b6be 3545 0abf
000000e0: 800a 2abf 42e6 36bf b80e 51bf 8369 8f3e
000000f0: 0c00 ffbe cad1 d2be 215a 00bf 80d3 ebbe
00000100: c17b ecbe 7d5b 8fbe c7b8 a9be ac00 6cbe
00000110: fa2e b0be 392b b7be 03b8 0fbf dabb f7bd
00000120: e892 32bc c8bf 02bf d281 2fbf d010 96be
00000130: ead2 debe b5d2 cdbe d453 27bf b616 2f3f
00000140: 4caf 0d3c c5d7 cf3b a604 5bbe 4778 8abe
00000150: 1e95 ad3e 07ff afbd 8ada 86bd 1a2d 713d
00000160: 077d a7be ce3b 58bf 823e 863b 9c54 2ebd
00000170: 851a d03d a52b a8be a6ec 41bf 6553 533d
00000180: 6ccc 7e3e 9722 e23e e2b9 f6be 8268 07be
00000190: 58b0 07be 0765 01be f74f 3d3f 0425 62bd
000001a0: 9053 8f3e c335 1abf 594a 17bf 7f99 d33e
000001b0: 186a 713f 2346 b0be 33c3 2dbe 2db8 0c3d
000001c0: 7c3b 5abe e7a3 2b3e f4ef e2be 68a2 20bf
000001d0: 48dd b63e b086 ed3d 795a d1be c864 8dbe
000001e0: 2479 31bf 3f57 233f ace4 f2be a540 47bf
000001f0: 3fbe 9f3e 25f6 59bf b2a8 49bf 6230 10bf
00000200: 8905 74bf 8de8 84be b422 19bf e73a c4be
00000210: 9891 aebe 0863 11bf ba13 dd3e a3a1 14bf
00000220: e787 9cbe e6d4 9ebe 20cf bfbe 1841 e93e
00000230: 806c bcbe 29ad 33be 37d3 82be a0b0 0abf
00000240: 0e28 07bf c126 07bf dd33 c2be 5e58 b3be
00000250: b615 b63e 2006 113e ce5e d9bc cbb0 abbc
00000260: a8a7 e9bd 1d7c f9bd 3fa2 d3bc 2798 c0be
00000270: 8513 fbbd 9f86 75bd b9d4 a6bd 2a39 7abd
00000280: 8dcf 8ebd 6a62 05bc d14b c0bd 7d77 c33c
00000290: 8db3 03be f2e6 393e d552 eebc a51b 8cbd
000002a0: b9f1 153c 7e8b 0ebe 1891 e2bd 8350 d0bc
000002b0: 972a 043c f12a 1abe ad22 4fbe 7374 8dbd
000002c0: ac15 e5bd 09cd 68be 32d4 d9be 8380 c1be
000002d0: b6ca 9bbe 6dd0 4abe 42c6 98be e343 c7be
000002e0: e81a ccbe 893e 3a3e f06a d8be 3d23 1fbf
000002f0: 4071 f5be 761e 92be 8b88 d03d 34c7 163f
00000300: 94fb 1e3b 0ce4 febe 1b16 e6be af5c 78bf
00000310: bd3d 993e da64 123f dfaf 093f 28ad aa3a
00000320: 5294 c1bd 2ba3 ed3e afbe 483f 61ab b93e
00000330: c97e 493e 4883 20be 3391 6cbe 4586 02bf
00000340: b2e2 4c3d d754 b83e 6c8d 4bbf 683a 5b3f
00000350: e9de c63d b33e 17bf b35c 12bf 22a6 4fbf
00000360: 321b b3be 0f88 923f 338e b13e d43d 39bf
00000370: 04d5 85be 39d4 a1be 0990 b5be b07e b9be
00000380: 88f0 f9bd e1cb 88bd 8116 a8bd 2d8e 22be
00000390: 2c38 96be 5004 e1bd 5224 813d daa9 a0be
000003a0: f210 9cbe c1f7 d5be 0dfd ccbe 3917 0bbd
000003b0: f858 62be 7e30 83be 0251 32be 3b6b 53be
000003c0: d53a 58be 2975 c1be 4d5a 8e3e 0751 043e
000003d0: d785 99be 5f82 c93e 9c1d ee3c 3e4b 9fbd
000003e0: 3b38 c4bd e5bf 87be e3f4 96be bb0d 7dbe
000003f0: c32c 31be ced4 343e c674 a3be 0266 d6be
-0.60283446 -0.47109136 -0.3925917 -0.71107584 0.097430475 -0.2238608 -0.41791898 -0.21660396
-0.221979 0.19901012 -0.41758382 -0.3847617 -0.1876126 -0.1298491 0.49318185 -0.5385943
-0.49081737 -0.43338013 -0.21992573 -0.07783045 -0.576044 -0.6504449 -0.26258478 0.34508592
0.20776851 -0.10355401 -0.07990369 -0.6195477 -0.5820668 -0.6428704 0.14744842 0.108991966
-0.2719669 -0.6237463 -0.68577874 -0.23543622 -0.8242143 -0.24314775 0.119118944 0.22889084
-0.4990012 -0.8037921 -0.7786667 -0.59847766 0.28708306 -0.6511901 -0.61163694 -0.36456013
-0.25277957 -0.24025004 -0.5159463 -0.5251306 -0.3609488 -0.06536963 -0.35603195 -0.5401185
-0.6642227 -0.71445096 -0.81663084 0.28010187 -0.49804723 -0.4117568 -0.50137526 -0.460598
-0.46188167 -0.27999488 -0.33148786 -0.23047131 -0.3441084 -0.35775164 -0.56140155 -0.12096377
-0.010899283 -0.51073885 -0.68557465 -0.29309702 -0.4352029 -0.4019982 -0.65362287 0.6839403
0.008647751 0.0063428604 -0.21388492 -0.2704489 0.3390283 -0.085935645 -0.06584652 0.058880903
-0.32712576 -0.84466255 0.004096807 -0.04256116 0.10161308 -0.32845798 -0.7575172 0.051593203
0.24882668 0.44167015 -0.48188692 -0.1322346 -0.13250864 -0.12636195 0.7395014 -0.055211082
0.2799344 -0.60238284 -0.5909782 0.41328046 0.9430251 -0.3442851 -0.16968994 0.03435533
-0.21311754 0.16761743 -0.44323695 -0.6274781 0.357157 0.11597955 -0.40889338 -0.27615952
-0.6932547 0.63805 -0.47440088 -0.77833015 0.31199834 -0.8514121 -0.78773034 -0.56323826
-0.95320946 -0.25958672 -0.5981858 -0.3832619 -0.34095454 -0.56791735 0.43179113 -0.5805914
-0.30572435 -0.31021804 -0.3746271 0.45557475 -0.3680153 -0.17546524 -0.2555177 -0.5417576
-0.52795494 -0.5279351 -0.37930194 -0.35028356 0.3556344 0.14162493 -0.026534464 -0.020958325
-0.11408931 -0.12181876 -0.0258342 -0.37616083 -0.122595824 -0.059942838 -0.081460424 -0.061089672
-0.06973181 -0.0081411395 -0.09389461 0.023860687 -0.12861462 0.18154505 -0.029092232 -0.0684121
0.009151869 -0.139204 -0.11062831 -0.025429016 0.008066795 -0.15055443 -0.20228072 -0.069069766
-0.11185774 -0.22734465 -0.42544705 -0.3779336 -0.30428094 -0.1980607 -0.2983876 -0.3891898
-0.39864278 0.18187918 -0.42269087 -0.62163144 -0.47937965 -0.28538865 0.101822935 0.5889771
0.002425884 -0.4978336 -0.4493874 -0.97016424 0.29929915 0.5718514 0.53783983 0.0013021575
-0.09452118 0.4641355 0.7841596 0.36263564 0.19677271 -0.1567508 -0.23102264 -0.5098613
0.05002088 0.36002228 -0.7951267 0.85635996 0.097104855 -0.59080046 -0.571727 -0.81112874
-0.34981686 1.1447772 0.34678802 -0.7235997 -0.2613908 -0.31607226 -0.35461453 -0.36229467
-0.12204081 -0.06679512 -0.08207417 -0.15874548 -0.2933973 -0.10987151 0.06305756 -0.31379586
-0.30481678 -0.41790584 -0.40036812 -0.033957694 -0.22104251 -0.25622934 -0.17413715 -0.20646374
-0.21116193 -0.377847 0.2780327 0.12921534 -0.29984924 0.39357278 0.029066853 -0.07778023
-0.095810376 -0.2651359 -0.2948371 -0.24712269 -0.17302231 0.17659304 -0.3192503 -0.418747

conv2.bias f4 [16]
00000000: 991a 033f 24f4 a3bd cec1 14bd 4d2c d13f
00000010: cb9b 80bf e9c6 2ec0 d213 e2be 010c 45bf
00000020: ea44 acbf 4e67 cabf bc8f 2bbe 30c7 d43f
00000030: d7f2 e53e a402 6e3e 3cd7 5dbf e3e7 e5be
0.5121246 -0.080055505 -0.03631764 1.6341645 -1.0047544 -2.7308905 -0.44155747 -0.7697144
-1.3458531 -1.5812776 -0.16754049 1.6623287 0.44911835 0.23243195 -0.86656547 -0.44903478

fc1.weight f4 [120, 400]
00000000: 03e3 013f 929f f1bd 41ed f6bd 9056 79be
00000010: 5ad5 14be 43cd ac3e 8819 413d b391 09be
00000020: 9467 0cbf a437 98be f9dd 83be 50ad 163d
00000030: efb7 b2bd 3959 0dbf 870c a4be ca07 c0be
00000040: 7567 b2be ad4f b1bd 4f9c 9bbe c569 7e3d
00000050: d2d1 d8be a0e1 38be 0975 02be 544d 183e
00000060: 6f4c b73c 8b2b 57be 5b31 273d 909c 5d3a
00000070: 4a06 a63b 59c6 8abe 606b 9ebd 5039 b8be
00000080: 117f 053e 6ca0 83bc cbd2 dd3d 7503 babe
00000090: 1dec 18be b92f 36be 428d a6bd e863 c4bc
000000a0: 7566 a9be 779f b9bd d76c a33d 264f 023d
000000b0: b227 edbb edad acbe 53f6 8cbe 27e8 93be
000000c0: ab7a 53bc a87e 29be 06e6 acbd 67e8 9fbd
000000d0: add6 c73e 8bef 82bd 0cfd a9bd 2adc cfbe
000000e0: 1dad a8bb 03d2 d73d c559 053e 4b2d a5be
000000f0: faeb 923d 5aae 81bd 030f 083c 4055 37bd
00000100: 546f fbbd 0f29 cf3e e877 febe a2b0 cfbd
00000110: 890a be3d 17ac 94bd 0ad8 3f3e d4a7 8ebc
00000120: 2a9c 08bf 5862 2e3e 6504 e3be 1038 12be
00000130: 0f1f cabe 3d9b 08bf 9689 933c 7258 6c3e
00000140: 4871 60be 62b8 85be 264c b6be 58dc 6dbe
00000150: 40ae 1e3e 8e52 87be 800b 57bd feab 8cbe
00000160: ae24 7abe 05ce 563e c4a2 cbbc b4c2 a2bd
00000170: 7b61 08be 2cf2 14be 162f 5c3d 76b9 033e
00000180: b817 093c 21fd 15be b61e 33be 5e90 2b3e
00000190: 3e18 373e 6a95 5fbc 97fc 5fbe c3c2 efbd
000001a0: 1dbb 2fbe bc5f 4a3d 2dd1 cc3a 6dc7 3a3c
000001b0: 7da3 09bc 272c a0bd ab59 1f3d 00ba 8ebd
000001c0: c5c4 a9bd 80eb 0fbe 7350 41be bb85 44be
000001d0: afd0 80bd 31ba 0b3e 65e0 72bd 8822 36be
000001e0: 7055 f6bd 1365 ac3c 1974 ea3c d9d1 cebb
000001f0: 5202 71be 9616 083e e8a3 72bc ab34 c43d
00000200: b1b5 6ebe ca49 d1be 1be6 8d3e e151 a43c
00000210: 47a4 953d adbd 91be e251 a2be 13b9 96bd
00000220: 3d51 58be a876 2abe b2ff a8be c5d8 2abe
00000230: c493 7ebe 66bb c6be 6ec3 c8be 83ba a8be
00000240: 6c8d 7cbe 99e8 bcbe 5800 c1be faa8 0cbf
00000250: 35f2 33be 8a2f d1be b245 20be f8b2 50be
00000260: bd7a 29be 5396 efbd 1bc8 debd 898a 8cbd
00000270: 7e0d 5a3c 4a10 313b e33f 853b 1103 b9bd
00000280: 787c f03c 24a9 5abe 70cf 4bbe 5e81 fa3c
00000290: ec7a 043e ef06 003d 738e 4dbe c3e8 98bd
000002a0: 877a 8ebd 47c9 09be 0fcd 82be 955a 5fbe
000002b0: b445 18be 32ef d6bd 0021 6cbd 0fc3 3a3d
000002c0: 4616 5dbd dfef 203d 70d4 fdbd 1dd7 21bb
000002d0: 4dbe 903d 0491 f13c aa9c 53be c7bf 823d
000002e0: c020 8cbd 63c4 c7bc b6ae d3bd 261d 2dbe
000002f0: 8c09 203d 811d f6bd 5ddd 9ebd 1c2f 3dbd
00000300: 6ad5 f5bd 0866 89bc 75b5 28bd 6db0 be3d
00000310: 1119 3c3d 4692 23be 7d61 2e3d f541 e9bd
00000320: 4f2a 5c3d bc87 7e3d 4fe2 d5be 6df2 90be
00000330: ff21 1fbd 387d b03d 5093 313e 374b c1be
00000340: 418f 8cbe aebe 27bd 98c6 1f3e 8043 abbc
00000350: fdb3 60be 603e 1cbd 02f1 7dbd 946e 3abe
00000360: 1926 67be 115a 10be 4283 05be 134e 01be
00000370: 18cf 11be 4ce4 2bbe 2573 98be e27f 62be
00000380: bace b8bc fa53 e3be 4115 cf3e 844b 8a3c
00000390: ecc5 07be 628e 71be 7873 49bc bc9c 8ebd
000003a0: 5e73 ca3e ea36 63bd 90b4 12be ca8a 86be
000003b0: 602f acbd 4002 ecbd 72d1 a33d 0f90 4fbe
000003c0: 264b 323c 3966 95bd ac3f 4ebe daeb 60be
000003d0: 5d0b e83d 1fa0 103f b494 06be 6cb0 3fbe
000003e0: a0b8 3f3b 971c 03bd 4e7b fbbd 233c d2bd
000003f0: 782d 6bbe e2b1 433d d34c 213e 35b9 2fbd
0.5073702 -0.11798014 -0.12056971 -0.24349427 -0.14534512 0.33750352 0.04714349 -0.13434486
-0.5484555 -0.2972995 -0.2575529 0.036786377 -0.08726489 -0.5521427 -0.32040808 -0.37505943
-0.34844556 -0.08657775 -0.30392691 0.06211259 -0.4234758 -0.18054819 -0.12739958 0.14873248
0.022375314 -0.21012704 0.040818553 0.00084538106 0.0050666677 -0.27104452 -0.07735324 -0.35981226
0.13036753 -0.016067706 0.10831221 -0.36330763 -0.1493382 -0.17791642 -0.081324115 -0.02397342
-0.3308598 -0.09063619 0.07979744 0.031813763 -0.007237398 -0.33726445 -0.2753168 -0.28888056
-0.012907664 -0.16552222 -0.08442311 -0.07807999 0.39030972 -0.063933454 -0.08300218 -0.4059766
-0.00514759 0.105381034 0.13022526 -0.32261118 0.07173915 -0.06332083 0.00830436 -0.044759035
-0.122770935 0.40461013 -0.49700856 -0.10141112 0.09279353 -0.07259386 0.18734756 -0.017414011
-0.5336329 0.17029703 -0.4433929 -0.14279199 -0.3947682 -0.53361875 0.018009942 0.23080614
-0.21918213 -0.26117235 -0.35604972 -0.23228586 0.15496159 -0.26430172 -0.0525012 -0.2747497
-0.24428055 0.20977028 -0.024857886 -0.07947293 -0.13318436 -0.14545506 0.053755842 0.12863716
0.008367471 -0.14647342 -0.17492184 0.1675429 0.17880341 -0.013646463 -0.21873699 -0.1170707
-0.17161222 0.049407706 0.0015626304 0.011400086 -0.008400795 -0.078209214 0.038903873 -0.069690704
-0.08289484 -0.1405468 -0.18878345 -0.19191639 -0.06289803 0.13645245 -0.05929603 -0.1778661
-0.12028015 0.02104429 0.028619813 -0.006311637 -0.23536041 0.13289866 -0.014809586 0.09580358
-0.23311497 -0.4087661 0.2771462 0.020058574 0.07306724 -0.28465024 -0.31703097 -0.07359519
-0.2112474 -0.16646826 -0.3300758 -0.16684254 -0.24861056 -0.3881485 -0.392116 -0.32954797
-0.24663323 -0.36896208 -0.37695575 -0.5494534 -0.17572863 -0.40856582 -0.15651587 -0.20380771
-0.16550727 -0.11698594 -0.10878011 -0.06862361 0.013308881 0.0027017766 0.004066454 -0.09033788
0.029356226 -0.21353585 -0.1990335 0.030579265 0.12937516 0.031256612 -0.20073871 -0.07466271
-0.06956964 -0.13455687 -0.25547072 -0.21811898 -0.1487034 -0.10494842 -0.05764866 0.04559618
-0.05397632 0.03929126 -0.12394035 -0.0024694868 0.07067547 0.029488094 -0.20665231 0.06384235
-0.06842184 -0.024385637 -0.10336058 -0.1690565 0.039071605 -0.12017346 -0.077570654 -0.046187505
-0.12003596 -0.016772285 -0.041188676 0.09310994 0.045922343 -0.15973768 0.04257344 -0.113895334
0.053751286 0.062141165 -0.41774222 -0.28309956 -0.03885078 0.086176336 0.17341352 -0.37752697
-0.27453044 -0.04095333 0.15603101 -0.02090621 -0.2194366 -0.038145423 -0.06199742 -0.18206245
-0.22573127 -0.14096858 -0.13038352 -0.12627439 -0.14239156 -0.16786307 -0.29775348 -0.22119096
-0.022559512 -0.44400007 0.40445903 0.016881712 -0.13259095 -0.23589471 -0.012295596 -0.069634885
0.39541143 -0.055472292 -0.14326692 -0.26277763 -0.084074736 -0.11523867 0.07998933 -0.20269798
0.010882175 -0.07294888 -0.20141476 -0.2196497 0.113302924 0.56494325 -0.13142663 -0.18719643
0.0029254332 -0.032009687 -0.12279378 -0.102653764 -0.22966564 0.047777064 0.15751962 -0.042901237

fc1.bias f4 [120]
00000000: 1f24 f0bd b565 b9bc 2cc0 1ebf 2459 0fbe
00000010: 472d 433e bd7f 6bbe 3623 97be d76a 37bd
00000020: 68b2 053f 9bf9 d9be f73b 11be 840c 58be
00000030: 20c7 c4be 24df 13be 56e6 afbe 2d6a ad3c
00000040: d77d b83e 2133 f3bc 8333 4d3d 7c14 a33c
00000050: 815f 64be 8c73 97be 8eff 3ebe 61d1 3abe
00000060: 5dc6 5ebe 9e2c bebd da72 803e 5f61 67bd
00000070: c03a d4be 92ca 81bd 7d43 8a3d 98e7 1ebf
00000080: 6b40 113e 15fd 093f 83f7 69be f330 023f
00000090: edfa 2dbd 1348 0cbf a7d5 29bf bdf1 7cbc
000000a0: 69a8 6abe baa7 f4bb fbef 2ebe 4319 9cbd
000000b0: 85be 3aba 4988 23bd dd48 52be 6a40 77be
000000c0: 24a3 adbe b26f f43e fb9e 4bbd b628 b0bd
000000d0: 56fa 72be 1cb1 2fbe 3754 2ebc 9a83 663d
000000e0: fa16 b5be 39d6 b7be 1361 cc3d 289a 7cbe
000000f0: ed88 3dbe a776 8bbd a1bf a1be 6aad 45be
00000100: f6a2 a0be 4576 1e3f fc29 cabe 9ccc dabd
00000110: c378 02bc 29ac 90be 05c8 c0be 4593 98bd
00000120: 95eb 39bd c5c3 5fbd d84e 8dbe 00f3 2db9
00000130: 1e34 66be 4b89 1abf cbbe a9be cc15 b0be
00000140: 9d89 13be fe9f 343e 22f9 0d3e ca0c 78be
00000150: 1460 61bf d3fc 743d d159 b03e 30ad 9bbe
00000160: 721a b4be c373 eebe eb6e dbbe 8e3f f0be
00000170: f197 edbd dad6 f03e ff84 1dbe 7370 143f
00000180: 3a14 bcbe 9463 013e 38fa 68be 14c8 973f
00000190: 5a59 cc3c 09c7 623f f015 9cba c796 a13e
000001a0: cac5 9abd adb8 4ebf 8b15 30be e28c da3e
000001b0: 9a2b 413e bccd a4be 322c 31bf 7d43 bcbe
000001c0: 1cf8 123f 0061 14be bfb8 bb3e b23c 473f
000001d0: d433 36be 8527 c5be a401 b1bd dc38 ffbd
-0.117256396 -0.022631506 -0.6201198 -0.13998848 0.1906024 -0.22997947 -0.2951905 -0.044779625
0.5222535 -0.42573246 -0.14183031 -0.21098524 -0.3843317 -0.1444059 -0.3435542 0.021168793
0.36033508 -0.029687466 0.050097954 0.019907229 -0.22302057 -0.29580343 -0.18652174 -0.18243934
-0.21755357 -0.09285854 0.25087625 -0.056489345 -0.41451073 -0.06337465 0.067511536 -0.62072134
0.1418473 0.539018 -0.22848324 0.5085594 -0.04247563 -0.54797477 -0.6634163 -0.015438494
-0.22915806 -0.0074662836 -0.17083733 -0.07622006 -0.00071237265 -0.039924894 -0.20535608 -0.24145666
-0.3391353 0.47741467 -0.049712162 -0.08601515 -0.23728308 -0.17157406 -0.010640196 0.05627785
-0.35369092 -0.35905626 0.09979453 -0.24668181 -0.18509264 -0.068097405 -0.31591514 -0.19304433
-0.3137433 0.61899215 -0.39485157 -0.106835574 -0.007963362 -0.28256348 -0.37652603 -0.074499644
-0.045390684 -0.05463006 -0.27599216 -0.0001658909 -0.22480819 -0.6036574 -0.33153376 -0.3439163
-0.14407964 0.17639157 0.13864568 -0.24223629 -0.8803723 0.059811424 0.34443524 -0.3040557
-0.35176426 -0.46572694 -0.4285806 -0.46923488 -0.11601246 0.4703892 -0.15382765 0.57984084
-0.36734182 0.12635642 -0.22751701 1.1857934 0.02494495 0.88584954 -0.0011908393 0.31560346
-0.075572565 -0.8075054 -0.17195718 0.4268561 0.18864289 -0.32188213 -0.6920806 -0.3677024
0.57409835 -0.14490128 0.36664388 0.7782699 -0.17793208 -0.38506714 -0.08642891 -0.12462017

fc2.weight f4 [84, 120]
00000000: d2a4 bfbe ba70 c9be 6356 d5bd 9ad9 a8bd
00000010: 430f 7bbc b18e 3ebe 57ea 53be de22 1ebe
00000020: f4f3 393e 62df 5abe e75d bdbe 861f 73bd
00000030: 7d09 5ebe 054c e8bd 7557 82be 4fc3 953c
00000040: 520f ac3c 7c3d 6fbe 673e 5abe 249d 1cbe
00000050: 105e 82be 354e 18bd a02e 0abf aa83 55be
00000060: 3f23 0ebe f886 2dbc d19d 92bd 3c3b cebd
00000070: d4a6 afbd 63b8 9fbd 0b42 dfbd d0db 8abe
00000080: 49f3 52be 81a6 e83e 215e 19be b50b e73d
00000090: 6d6c 273a 1721 64be 425b a3be f1f7 45be
000000a0: 08e1 e5bd 55e2 9bbe 87e3 3fbe d201 c4bd
000000b0: fc49 d0be cf63 163e 39b2 88be d776 50be
000000c0: aba9 00be 6b31 f1bc b8bd e4be f0d6 483d
000000d0: 0f6b 83be 7681 dabc c8fb 853d f739 f9bc
000000e0: 25fa 7dbe d547 5fbe 6b8b a63d 8004 8ebe
000000f0: b227 8fbe 6abd fcbc 0043 71bd 7537 6cbe
00000100: df67 d2bd c2d8 973d 3450 1fbe 5f76 21bb
00000110: cc57 71be 48c8 88be ccf3 56be 6adb 96be
00000120: fea3 fbbd f7ab 87bc 70a1 75be f099 46be
00000130: 3360 14be dd20 15be 8cf2 32be 7181 19be
00000140: 8062 09be 946e 24be 9b95 c23d 432e 66be
00000150: fae9 c7be 84ca 7f3d 84b0 8c3c ffa7 1abd
00000160: 9f02 3fbe 01b9 42be 1ccb 19bd 5729 41be
00000170: 78e5 d0be a689 913e dc12 27be 494b c93e
00000180: 791a 97bd 7b9c 00bc c66a 94bd c5aa 80bc
00000190: fd57 1cbc d27a 14bc e765 29bc d33f 9d3e
000001a0: 5242 59be 95ec 91be 9d3b 17be f565 a63e
000001b0: 7b4d 3b3d ca8b c2bd 463f 77be 8aaa a8be
000001c0: a9f8 ad3e 5d4f 01be b879 9f3e 611f 8a3e
000001d0: 2333 bdbe a17c 29be 5e6f 50be e611 dcbd
000001e0: e36e 413e 1598 a73d d354 8c3d 4bd7 2fbe
000001f0: ff3e 8cbd d131 80bd a823 c4bc 3f3c bdbe
00000200: f36d f9bd fa53 503d 32d5 343d 6ff9 dbbd
00000210: c9a3 c8bd e993 d73d 96a0 babb a054 92be
00000220: 8abc 6dbe 489c 87be d73f 14be ddda a1be
00000230: 31c0 3a3e 1809 e53d 30a8 91be a310 0fbe
00000240: c075 91be 3665 70bd 6d04 6b3c 1c0c dabd
00000250: 126f d0bd cbc5 93bd d192 32bd b013 1bbe
00000260: 3526 56bd 3980 a6bc 2626 0dbe df67 41be
00000270: c5ce 93bc f464 06bd 08cc fabd 5f95 c0bd
00000280: 9fe3 22be e753 143d e165 993d 440c 49be
00000290: 77d1 3c3c ec09 82be 57a5 a8be 0344 ee3e
000002a0: b5c9 a4bd d411 983d f80c 803e d534 b83a
000002b0: f48d 8a3c 0e05 ccbd 0351 29bd 33d9 cfbc
000002c0: be63 80bd 4b5c f0bd bd43 35be 6357 2bbe
000002d0: 1a4f 04be fa6c 423d ec96 5cbd 1375 48bd
000002e0: 9573 bebd 6b8b 4e3b a0a0 22be ceb5 32bd
000002f0: 8982 033d 0a2e a6bd 1ada fabd 1b92 80bd
00000300: d4c5 49be 77a1 ff3d cd84 3ebd 1afc fabd
00000310: d90f fc3d e53f c5bd 240e 853e 918e 01bd
00000320: c1ee 14be f092 44bc b16b 3bbd 12c2 94be
00000330: 5af9 4abe 90bb 2bbd 92a5 6bbe 7e05 9abd
00000340: 75eb 6d3d f8a7 75be c3fb 54be 3ccd 26bd
00000350: 542f 8dbd 6cf0 6e3c 6daf 123d 5e3c 40bd
00000360: 5f28 2b3c a495 a5bd 2946 05bd 0400 0dbe
00000370: 69b6 39be af28 b9be ef68 85bd 19fd 483c
00000380: 5596 1dbe 8b22 323e 0b1c 093e d265 b9bd
00000390: 8e81 9fbd 0929 b4be 476c 34be 0a70 44be
000003a0: 08b4 413d 8994 a9be 1dbb 65bc 6014 563c
000003b0: d0f1 29bd 50be bcbe 80be 95bd 0b29 8ebe
000003c0: d789 f23d eac3 9fbe 1509 e7bd 2427 e5bd
000003d0: 26b2 68be e9fb febb cfe3 9a3c 4121 15be
000003e0: d761 f4bc 9e2b 4bbe 2d74 04be 922d afbd
000003f0: ef70 0abe 4f31 e5bd 5272 b9bd 4213 3dbe
-0.37430435 -0.39343816 -0.104168676 -0.08244629 -0.015323463 -0.1860912 -0.20694862 -0.15442988
0.18159467 -0.21374276 -0.36985704 -0.059356235 -0.21683307 -0.113426246 -0.2545735 0.018281607
0.021003399 -0.23363298 -0.21312867 -0.1529432 -0.2546239 -0.03718396 -0.53977394 -0.20851007
-0.13880633 -0.010591261 -0.07159007 -0.10069892 -0.08576742 -0.07798841 -0.109012686 -0.2712083
-0.20600618 0.45439532 -0.14977314 0.1128153 0.0006386701 -0.22278248 -0.31905562 -0.19332863
-0.11224562 -0.30446115 -0.18739139 -0.0957066 -0.40681446 0.14686511 -0.26698473 -0.20357834
-0.12564723 -0.02944251 -0.44675994 0.049033105 -0.25667617 -0.02667306 0.06542164 -0.030423148
-0.24802454 -0.21804745 0.081320606 -0.27737808 -0.27959973 -0.030852038 -0.058901787 -0.2306803
-0.10273718 0.0741439 -0.15557939 -0.0024637205 -0.23568648 -0.26715302 -0.20991439 -0.29464275
-0.122871384 -0.016561491 -0.23987365 -0.1939466 -0.14489822 -0.14563318 -0.17475337 -0.14990784
-0.13416481 -0.16057807 0.09501191 -0.22478585 -0.39045697 0.062448993 0.017174013 -0.03775787
-0.18653344 -0.19015886 -0.037547216 -0.18863426 -0.4080007 0.2842533 -0.16315788 0.3931525
-0.07378096 -0.007849808 -0.07246928 -0.01570643 -0.009542462 -0.009062486 -0.010339237 0.30712757
-0.21216705 -0.2850081 -0.14768834 0.32499662 0.045728188 -0.09499319 -0.2414523 -0.3294261
0.33978775 -0.12627931 0.31147552 0.26977065 -0.36953077 -0.16551448 -0.20354983 -0.10745601
0.18889956 0.08183304 0.068521164 -0.17171971 -0.06847953 -0.06259502 -0.023942783 -0.36960027
-0.12179174 0.050861336 0.04414863 -0.10740935 -0.097968645 0.105262585 -0.005695413 -0.2858019
-0.23216453 -0.2648642 -0.14477478 -0.31612292 0.18237378 0.11183375 -0.2844863 -0.1397119
-0.2841015 -0.058690272 0.014344317 -0.10646841 -0.10177435 -0.072154604 -0.043597046 -0.15144229
-0.05228253 -0.020324813 -0.13784084 -0.1888728 -0.018042931 -0.03281112 -0.12245947 -0.0940349
-0.15907143 0.036212828 0.07490135 -0.19633585 0.01152455 -0.25398195 -0.32938644 0.46536264
-0.08046285 0.074252754 0.25009894 0.0014053831 0.016913392 -0.099619016 -0.041337024 -0.025372123
-0.06269024 -0.117363535 -0.17701621 -0.16732554 -0.129208 0.04746721 -0.053854868 -0.048939776
-0.09299389 0.0031516205 -0.15881586 -0.043630414 0.03210691 -0.0811425 -0.12248631 -0.062778674
-0.19704372 0.12481969 -0.046513367 -0.12255116 0.1230771 -0.096313275 0.2598735 -0.031630103
-0.14544202 -0.011997923 -0.045757 -0.29054314 -0.19821683 -0.04192692 -0.23012379 -0.07520579
0.058085877 -0.23989856 -0.20799164 -0.04072307 -0.06893793 0.014583688 0.03581183 -0.04693257
0.010446637 -0.08085182 -0.032537613 -0.13769537 -0.1813599 -0.36163852 -0.06514155 0.012267374
-0.15389378 0.1739599 0.13389604 -0.09052624 -0.077883825 -0.35187557 -0.1761943 -0.19183365
0.04729083 -0.33121136 -0.014021662 0.013066381 -0.041490376 -0.36863947 -0.073117256 -0.27765688
0.11842697 -0.31204158 -0.11281029 -0.11189106 -0.22724208 -0.007781495 0.018907456 -0.14563467
-0.02983181 -0.19840857 -0.12934943 -0.08553614 -0.13519643 -0.111910455 -0.09055008 -0.18464378

fc2.bias f4 [84]
00000000: afba 45be 3d78 32be 3522 93bc 575a adbd
00000010: c531 073f b7a8 82be 5587 cfbe 443d 9bbe
00000020: 2a22 d83e 9f58 1a3e d9a9 a13f 9459 4fbd
00000030: b704 093e 24b9 21be e09d 30bd faa1 bdbd
00000040: f3e6 fcbd 84b9 a8be 2460 49be f29f 87be
00000050: f1a0 03be 45c8 943e 220d 86be 4646 3fbd
00000060: e8a3 e03a 1293 473f c34b 99be 0dd6 b43e
00000070: 9394 d6be 2c87 b03d 5b44 89bb 4aa8 aabe
00000080: 76f4 9a3e bb85 77be b95e b0be 7982 0ebe
00000090: d923 2c3e d338 b1bd 62aa 1b3e ed99 083f
000000a0: 33db 9fbe 854b 4abe fa2b 463e e31f 13be
000000b0: d23c f5bd 8891 1e3d bea4 093f 71bb 873c
000000c0: 4e92 82be b111 823e c3d3 15be e4ec 08bd
000000d0: 67e4 cbbe 161f da3d 199f 5ebd f480 9dbc
000000e0: 6f8f 82be 297e 4c3e 0333 80be 1a93 813d
000000f0: 6589 f4bc 703a c63d 21b3 35be 03d8 0abe
00000100: 9ec0 48be 9759 183e 784b 66be 8755 043e
00000110: 64c4 2ebe 703d 51be 9591 87be 11ec dfbb
00000120: aa81 7f3c 92a5 0fbd 41ce 62be 7d67 753e
00000130: da6e 1fbe e9b4 6a3e e0c3 efbd 2ee4 df3e
00000140: 27d8 973f 2db4 c13e c1c0 2c3f ba3c c33e
-0.19309495 -0.1742868 -0.017960647 -0.084644966 0.5281032 -0.25519344 -0.40532938 -0.3032018
0.42213565 0.15072869 1.2629958 -0.050622538 0.13380705 -0.15793282 -0.04311931 -0.0925941
-0.123487376 -0.32954037 -0.19665581 -0.26489216 -0.12854363 0.29059044 -0.26181895 -0.046697877
0.0017138692 0.77958786 -0.29940614 0.35319558 -0.41910228 0.08619532 -0.004189057 -0.3333152
0.30264634 -0.24172108 -0.34447268 -0.13916959 0.1681055 -0.086534165 0.15201715 0.5335987
-0.31221923 -0.19755371 0.19352713 -0.14367633 -0.11974491 0.03871301 0.53767 0.016568871
-0.25502247 0.25404122 -0.14631562 -0.03342904 -0.39822695 0.106504604 -0.054350946 -0.019226529
-0.25500056 0.19970001 -0.2503892 0.063268855 -0.029850671 0.09679115 -0.17744114 -0.13558964
-0.19604728 0.14877926 -0.22489727 0.12923251 -0.17067105 -0.20433593 -0.26478258 -0.006833561
0.015594879 -0.03507001 -0.22148992 0.23965259 -0.1556963 0.22920574 -0.11707282 0.43728775
1.186284 0.37832776 0.6748162 0.38132268

fc3.weight f4 [10, 84]
00000000: 3a38 213f 8fec 2dbe 8e02 33bc 6e61 0abe
00000010: 9714 36be 1723 0c3e 3300 29be 4cd5 8b3d
00000020: 2130 93be e3ae e6bd 9ab6 b7be 2d49 533c
00000030: f671 fd3c 172d 8bbd 279d 533d e552 3b3e
00000040: f5c0 a03d 5d14 9f3d 72b2 333e bc97 173d
00000050: 7e1e e43d 48e1 2fbe 0de6 26be 2534 9a3d
00000060: 493e 8a3d e704 25be 051e 433c e0f5 d2be
00000070: e443 103e 4a1c 79be 4ec0 85bd 88d6 5dbe
00000080: d8e9 c83e 0c33 243d 8723 323d 92f7 ccbd
00000090: fc97 36be fe87 f8bd 7a8e 87bd 0943 3cbe
000000a0: 0a36 753c cc27 b33d b6d1 eabe a3b9 24be
000000b0: 7aeb afbd a6be 913d e87f 55be f613 29be
000000c0: 9180 8abe 84a1 cc3e 7ca2 8dbd 4ec5 99bd
000000d0: 4fad 5abe c32b aabd 37c1 a2bd 94d3 96be
000000e0: abf7 9d3d 9048 ebbd 28ce 863e 76d6 8ebd
000000f0: f832 84bd 4426 b0bd fdd8 dd3d 0cec b83c
00000100: 4ca3 543e 2053 4cbc 5952 2fbd a6f3 21bc
00000110: da8f fe3d 9823 8fbe 9d14 0b3e 18e1 0fbe
00000120: b67e cdbe a84a a63d 2899 14bd 73bf f2bd
00000130: baf4 b0bc 3311 ebbd 62d6 83bd eec2 1cbd
00000140: d761 9fbe a356 8cbc 91fd 31be e2ff c4bc
00000150: 80d9 263e 6b0a 98bd a580 2a3d a626 81bd
00000160: a85e 7d3e bb3c 123e fdae 423e f3c8 533e
00000170: f06f d2be f2ea 8fbd 37fa a0be a615 b3bd
00000180: 8ae3 47be 7178 23bd df33 d7be 71f2 373e
00000190: 0f36 32bd 6b20 dd3c 257d 8e3e 1aaa 1c3e
000001a0: 9408 603d 39db 61be 97e4 1e3e 8f86 91bd
000001b0: 486d 12be db22 03bf 2a8d ef3c 9146 1dbe
000001c0: 99c3 a23e c7ad eabe 8638 23be d7f3 ff3c
000001d0: eb85 9bbe 4bfc 663d 1d9f 113e 6d8f 293e
000001e0: a965 c9be 1ef2 8b3e f227 9bbe 7753 b5be
000001f0: 08e8 913d 850a 19bd 8ac3 0dbf 1029 8f3d
00000200: b31b 93bd 9af7 68be 3c03 b23c b58a ebbe
00000210: 4157 39be c20a 7f3e 2fdf 9cbe 98f3 16be
00000220: 7767 f33e 5878 97be 0425 68be 83fc 41be
00000230: c71c 0f3e ccfc 413e 4a40 3a3e 70d0 3abd
00000240: a36e 58be ad9b febd f812 583e 25c0 89be
00000250: 41ce 613e e313 363d 36c5 64be b546 bfbe
00000260: 014f 15be f178 70be 609d 0d3e 2694 fbbd
00000270: 379a 74be 3860 0c3d a27c d73c df29 2dbd
00000280: 825a ab3d 398d 75be aa9a aebe c91e 20bf
00000290: f0c8 2fbf ebb2 1cbf f639 01bf 67ff 29bf
000002a0: 9561 853e 0f8a a33e db4c c33d 2fc0 9bbd
000002b0: 7e53 3e3e 3d49 8a3d 1554 1dbe b25e 9b3d
000002c0: 258e 77bd 18db 843d 9d51 d73e ced6 c0bd
000002d0: cc60 2c3e 9c0c ddb9 5e2e 2f3e c7ce 7b3c
000002e0: 77ff 0b3d 4d20 7abc 4342 ddbd afeb 58bd
000002f0: 8e67 93bb bf84 0f3e 2ea1 0c3e a581 a43e
00000300: c89a d43d c562 743e 76cf f13d 9831 cc3b
00000310: f193 803d ea79 ee3e c319 d3bd 3a29 293d
00000320: a650 733c a12b dfbd 5643 e7bd b8fe 32be
00000330: a4fb 28bd 5293 16be c5d8 493e 849e 4e3e
00000340: 1e3a 54be 9faa 423d 41f6 5f3e d41c 72bd
00000350: b28f 86bd 697d c7bc c6d6 c43e c0d2 393e
00000360: d0fe 463e 22d6 a2bd 5fe2 563e 3a3c 8e3d
00000370: bffa 753e 148b 2f3d 73fb b53e 9fd3 113e
00000380: cfe8 22be eec9 9e3d f663 f7bc 4dc2 703e
00000390: ee96 b23d eed7 243e f2e2 b6bd 7811 cf3d
000003a0: c65a 713d 1ede 8b3d 240c 59be 8b86 0d3e
000003b0: 2575 b53c 9393 c23d 2dcd 84bb d651 8c3e
000003c0: 5964 a63b 8991 e8bd d172 ad3e 1ae2 96bd
000003d0: 44e3 98bd 98a6 723e f584 413e 07eb 063e
000003e0: 4b3c 9d3e fc49 a73e 3d8f 413e 288a fd3e
000003f0: 5be3 98be 2913 653e 817c 2a3e 2e2c 263e
0.6297642 -0.16984771 -0.010925902 -0.13513729 -0.17781292 0.1368526 -0.16503982 0.068277925
-0.28747657 -0.11263826 -0.358815 0.012895864 0.03093813 -0.067957096 0.051663544 0.1829334
0.07849304 0.07767556 0.1754854 0.03700994 0.111386284 -0.17175782 -0.16298695 0.07529477
0.06750161 -0.16115151 0.011909013 -0.41203213 0.14088398 -0.24327198 -0.0653082 -0.21663868
0.3924091 0.040087745 0.043490913 -0.10008158 -0.17831415 -0.121353135 -0.06618972 -0.18384947
0.014966497 0.08747825 -0.45863122 -0.1608644 -0.085898355 0.071164414 -0.20849574 -0.1651152
-0.27051213 0.39966977 -0.06915757 -0.07508336 -0.21355174 -0.08309128 -0.07947009 -0.29458296
0.077132545 -0.114884496 0.2632916 -0.06974499 -0.06455034 -0.086010486 0.10832403 0.022573493
0.20765418 -0.01247099 -0.042803142 -0.0098847505 0.12429781 -0.27956843 0.13582082 -0.1405071
-0.40135735 0.08119708 -0.036278874 -0.11852922 -0.02160107 -0.1147789 -0.06437375 -0.038271837
-0.31129333 -0.017131155 -0.17381884 -0.024047796 0.16293907 -0.07423862 0.04162659 -0.063062
0.2474314 0.1428098 0.19012065 0.20682125 -0.41101027 -0.07027234 -0.314409 -0.087443635
-0.19520393 -0.039909784 -0.42031762 0.17963578 -0.043508586 0.026992997 0.27829853 0.15299264
0.05469568 -0.22056283 0.15516888 -0.07105743 -0.142995 -0.5122506 0.029242117 -0.1535895
0.31789854 -0.45835707 -0.1593953 0.031244202 -0.3037561 0.05639295 0.14220853 0.16558619
-0.39335373 0.27333158 -0.30303913 -0.3541524 0.071243346 -0.037363548 -0.55376494 0.06990254
-0.071830176 -0.22750703 0.021730058 -0.46004263 -0.18099691 0.24906448 -0.30639026 -0.14741361
0.47539875 -0.29584002 -0.2267037 -0.18943982 0.13975821 0.1894409 0.18188587 -0.045608938
-0.21135955 -0.124320365 0.21100986 -0.26904407 0.22051336 0.04445256 -0.22340855 -0.37358633
-0.14580919 -0.23483635 0.13829565 -0.122841164 -0.23886953 0.03427145 0.026304547 -0.04227626
0.08366872 -0.23979653 -0.34102374 -0.62546974 -0.6866598 -0.6121051 -0.50479066 -0.6640534
0.26051012 0.31941268 0.095361434 -0.076050155 0.18586537 0.0675225 -0.15364106 0.07586421
-0.060438294 0.06487101 0.42054453 -0.09415971 0.168338 -0.000421618 0.17107531 0.015369124
0.034179177 -0.01526649 -0.10803654 -0.05295914 -0.0044984287 0.14015482 0.1373336 0.3213016
0.10381085 0.23865803 0.11807148 0.006231498 0.062782176 0.46577388 -0.10307648 0.041299082
0.014850771 -0.108969934 -0.1129214 -0.1747998 -0.04125561 -0.14704636 0.19711597 0.20177656
-0.20725295 0.047526 0.21871282 -0.059109524 -0.065703765 -0.024351792 0.3844511 0.18146801
0.19433141 -0.07950999 0.20984791 0.06945081 0.24021433 0.042857245 0.35543403 0.14240883
-0.15909122 0.07753359 -0.030199032 0.2351162 0.08720194 0.16097996 -0.08930005 0.10110754
0.05892446 0.06829475 -0.21196038 0.13820855 0.022150585 0.09500804 -0.004052779 0.27406186
0.0050778803 -0.11355884 0.3387666 -0.07367344 -0.074652225 0.23696363 0.18898375 0.13175593
0.30710062 0.32673633 0.18902297 0.49519467 -0.29860958 0.2237059 0.16649057 0.1622779

fc3.bias f4 [10]
00000000: b7d1 783e 6616 873f 23c8 b8be a424 6fbe
00000010: 37a0 45bf a923 89be 936b 42bf a407 2fbe
00000020: c843 fe3e c77c 5b3f
0.2429875 1.055371 -0.36090192 -0.23353821 -0.77197593 -0.2678502 -0.75945395 -0.17092758
0.49661088 0.8573727
